…
              'hyperparam_tuning': True,
              'max_patch_length': 100000,
              'noise': 0.1,
              'num_batches_minimum': 200,
              'num_epochs': 100,
              'num_shots_at_once': 200,
              'ranking_difficulty_fac': 1.0,
              'shuffle_training': True,
              'train_frac': 0.75,
              'use_mock_data': False,
              'validation_frac': 0.33},
 'user_name': 'hl8967'}
...done
Training on 1724 shots, testing on 857 shots
n_scalars,n_profiles,profile_size= 14 2 64
FTCN(
  (lin): InputBlock(
    (layers): ModuleList(
      (0): Conv1d(2, 2, kernel_size=(3,), stride=(1,))
      (1): ReLU()
      (2): MaxPool1d(kernel_size=2, stride=2, padding=0, dilation=1, ceil_mode=False)
      (3): Dropout2d(p=0.08, inplace=False)
      (4): Conv1d(2, 1, kernel_size=(3,), stride=(1,))
      (5): ReLU()
      (6): MaxPool1d(kernel_size=2, stride=2, padding=0, dilation=1, ceil_mode=False)
      (7): Dropout2d(p=0.08, inplace=False)
    )
    (net): Sequential(
      (0): Conv1d(2, 2, kernel_size=(3,), stride=(1,))
      (1): ReLU()
      (2): MaxPool1d(kernel_size=2, stride=2, padding=0, dilation=1, ceil_mode=False)
      (3): Dropout2d(p=0.08, inplace=False)
      (4): Conv1d(2, 1, kernel_size=(3,), stride=(1,))
      (5): ReLU()
      (6): MaxPool1d(kernel_size=2, stride=2, padding=0, dilation=1, ceil_mode=False)
      (7): Dropout2d(p=0.08, inplace=False)
    )
    (linear_layers): ModuleList(
      (0): Linear(in_features=14, out_features=160, bias=True)
      (1): ReLU()
    )
    (linear_net): Sequential(
      (0): Linear(in_features=14, out_features=160, bias=True)
      (1): ReLU()
    )
  )
  (input_layer): TimeDistributed(
    (module): InputBlock(
      (layers): ModuleList(
        (0): Conv1d(2, 2, kernel_size=(3,), stride=(1,))
        (1): ReLU()
        (2): MaxPool1d(kernel_size=2, stride=2, padding=0, dilation=1, ceil_mode=False)
        (3): Dropout2d(p=0.08, inplace=False)
        (4): Conv1d(2, 1, kernel_size=(3,), stride=(1,))
        (5): ReLU()
        (6): MaxPool1d(kernel_size=2, stride=2, padding=0, dilation=1, ceil_mode=False)
        (7): Dropout2d(p=0.08, inplace=False)
      )
      (net): Sequential(
        (0): Conv1d(2, 2, kernel_size=(3,), stride=(1,))
        (1): ReLU()
        (2): MaxPool1d(kernel_size=2, stride=2, padding=0, dilation=1, ceil_mode=False)
        (3): Dropout2d(p=0.08, inplace=False)
        (4): Conv1d(2, 1, kernel_size=(3,), stride=(1,))
        (5): ReLU()
        (6): MaxPool1d(kernel_size=2, stride=2, padding=0, dilation=1, ceil_mode=False)
        (7): Dropout2d(p=0.08, inplace=False)
      )
      (linear_layers): ModuleList(
        (0): Linear(in_features=14, out_features=160, bias=True)
        (1): ReLU()
      )
      (linear_net): Sequential(
        (0): Linear(in_features=14, out_features=160, bias=True)
        (1): ReLU()
      )
    )
  )
  (tcn): TCN(
    (tcn): TemporalConvNet(
      (layers): ModuleList(
        (0): TemporalBlock(
          (conv1): Conv1d(174, 20, kernel_size=(11,), stride=(1,), padding=(10,))
          (chomp1): Chomp1d()
          (relu1): ReLU()
          (dropout1): Dropout2d(p=0.08, inplace=False)
          (conv2): Conv1d(20, 20, kernel_size=(11,), stride=(1,), padding=(10,))
          (chomp2): Chomp1d()
          (relu2): ReLU()
          (dropout2): Dropout2d(p=0.08, inplace=False)
          (net): Sequential(
            (0): Conv1d(174, 20, kernel_size=(11,), stride=(1,), padding=(10,))
            (1): Chomp1d()
            (2): ReLU()
            (3): Dropout2d(p=0.08, inplace=False)
            (4): Conv1d(20, 20, kernel_size=(11,), stride=(1,), padding=(10,))
            (5): Chomp1d()
            (6): ReLU()
            (7): Dropout2d(p=0.08, inplace=False)
          )
          (downsample): Conv1d(174, 20, kernel_size=(1,), stride=(1,))
          (relu): ReLU()
        )
        (1): TemporalBlock(
          (conv1): Conv1d(20, 20, kernel_size=(11,), stride=(1,), padding=(20,), dilation=(2,))
          (chomp1): Chomp1d()
          (relu1): ReLU()
          (dropout1): Dropout2d(p=0.08, inplace=False)
          (conv2): Conv1d(20, 20, kernel_size=(11,), stride=(1,), padding=(20,), dilation=(2,))
          (chomp2): Chomp1d()
          (relu2): ReLU()
          (dropout2): Dropout2d(p=0.08, inplace=False)
          (net): Sequential(
            (0): Conv1d(20, 20, kernel_size=(11,), stride=(1,), padding=(20,), dilation=(2,))
            (1): Chomp1d()
            (2): ReLU()
            (3): Dropout2d(p=0.08, inplace=False)
            (4): Conv1d(20, 20, kernel_size=(11,), stride=(1,), padding=(20,), dilation=(2,))
            (5): Chomp1d()
            (6): ReLU()
            (7): Dropout2d(p=0.08, inplace=False)
          )
          (relu): ReLU()
        )
        (2): TemporalBlock(
          (conv1): Conv1d(20, 20, kernel_size=(11,), stride=(1,), padding=(40,), dilation=(4,))
          (chomp1): Chomp1d()
          (relu1): ReLU()
          (dropout1): Dropout2d(p=0.08, inplace=False)
          (conv2): Conv1d(20, 20, kernel_size=(11,), stride=(1,), padding=(40,), dilation=(4,))
          (chomp2): Chomp1d()
          (relu2): ReLU()
          (dropout2): Dropout2d(p=0.08, inplace=False)
          (net): Sequential(
            (0): Conv1d(20, 20, kernel_size=(11,), stride=(1,), padding=(40,), dilation=(4,))
            (1): Chomp1d()
            (2): ReLU()
            (3): Dropout2d(p=0.08, inplace=False)
            (4): Conv1d(20, 20, kernel_size=(11,), stride=(1,), padding=(40,), dilation=(4,))
            (5): Chomp1d()
            (6): ReLU()
            (7): Dropout2d(p=0.08, inplace=False)
          )
          (relu): ReLU()
        )
        (3): TemporalBlock(
          (conv1): Conv1d(20, 20, kernel_size=(11,), stride=(1,), padding=(80,), dilation=(8,))
          (chomp1): Chomp1d()
          (relu1): ReLU()
          (dropout1): Dropout2d(p=0.08, inplace=False)
          (conv2): Conv1d(20, 20, kernel_size=(11,), stride=(1,), padding=(80,), dilation=(8,))
          (chomp2): Chomp1d()
          (relu2): ReLU()
          (dropout2): Dropout2d(p=0.08, inplace=False)
          (net): Sequential(
            (0): Conv1d(20, 20, kernel_size=(11,), stride=(1,), padding=(80,), dilation=(8,))
            (1): Chomp1d()
            (2): ReLU()
            (3): Dropout2d(p=0.08, inplace=False)
            (4): Conv1d(20, 20, kernel_size=(11,), stride=(1,), padding=(80,), dilation=(8,))
            (5): Chomp1d()
            (6): ReLU()
            (7): Dropout2d(p=0.08, inplace=False)
          )
          (relu): ReLU()
        )
        (4): TemporalBlock(
          (conv1): Conv1d(20, 20, kernel_size=(11,), stride=(1,), padding=(160,), dilation=(16,))
          (chomp1): Chomp1d()
          (relu1): ReLU()
          (dropout1): Dropout2d(p=0.08, inplace=False)
          (conv2): Conv1d(20, 20, kernel_size=(11,), stride=(1,), padding=(160,), dilation=(16,))
          (chomp2): Chomp1d()
          (relu2): ReLU()
          (dropout2): Dropout2d(p=0.08, inplace=False)
          (net): Sequential(
            (0): Conv1d(20, 20, kernel_size=(11,), stride=(1,), padding=(160,), dilation=(16,))
            (1): Chomp1d()
            (2): ReLU()
            (3): Dropout2d(p=0.08, inplace=False)
            (4): Conv1d(20, 20, kernel_size=(11,), stride=(1,), padding=(160,), dilation=(16,))
            (5): Chomp1d()
            (6): ReLU()
            (7): Dropout2d(p=0.08, inplace=False)
          )
          (relu): ReLU()
        )
      )
      (network): Sequential(
        (0): TemporalBlock(
          (conv1): Conv1d(174, 20, kernel_size=(11,), stride=(1,), padding=(10,))
          (chomp1): Chomp1d()
          (relu1): ReLU()
          (dropout1): Dropout2d(p=0.08, inplace=False)
          (conv2): Conv1d(20, 20, kernel_size=(11,), stride=(1,), padding=(10,))
          (chomp2): Chomp1d()
          (relu2): ReLU()
          (dropout2): Dropout2d(p=0.08, inplace=False)
          (net): Sequential(
            (0): Conv1d(174, 20, kernel_size=(11,), stride=(1,), padding=(10,))
            (1): Chomp1d()
            (2): ReLU()
            (3): Dropout2d(p=0.08, inplace=False)
            (4): Conv1d(20, 20, kernel_size=(11,), stride=(1,), padding=(10,))
            (5): Chomp1d()
            (6): ReLU()
            (7): Dropout2d(p=0.08, inplace=False)
          )
          (downsample): Conv1d(174, 20, kernel_size=(1,), stride=(1,))
          (relu): ReLU()
        )
        (1): TemporalBlock(
          (conv1): Conv1d(20, 20, kernel_size=(11,), stride=(1,), padding=(20,), dilation=(2,))
          (chomp1): Chomp1d()
          (relu1): ReLU()
          (dropout1): Dropout2d(p=0.08, inplace=False)
          (conv2): Conv1d(20, 20, kernel_size=(11,), stride=(1,), padding=(20,), dilation=(2,))
          (chomp2): Chomp1d()
          (relu2): ReLU()
          (dropout2): Dropout2d(p=0.08, inplace=False)
          (net): Sequential(
            (0): Conv1d(20, 20, kernel_size=(11,), stride=(1,), padding=(20,), dilation=(2,))
            (1): Chomp1d()
            (2): ReLU()
            (3): Dropout2d(p=0.08, inplace=False)
            (4): Conv1d(20, 20, kernel_size=(11,), stride=(1,), padding=(20,), dilation=(2,))
            (5): Chomp1d()
            (6): ReLU()
            (7): Dropout2d(p=0.08, inplace=False)
          )
          (relu): ReLU()
        )
        (2): TemporalBlock(
          (conv1): Conv1d(20, 20, kernel_size=(11,), stride=(1,), padding=(40,), dilation=(4,))
          (chomp1): Chomp1d()
          (relu1): ReLU()
          (dropout1): Dropout2d(p=0.08, inplace=False)
          (conv2): Conv1d(20, 20, kernel_size=(11,), stride=(1,), padding=(40,), dilation=(4,))
          (chomp2): Chomp1d()
          (relu2): ReLU()
          (dropout2): Dropout2d(p=0.08, inplace=False)
          (net): Sequential(
            (0): Conv1d(20, 20, kernel_size=(11,), stride=(1,), padding=(40,), dilation=(4,))
            (1): Chomp1d()
            (2): ReLU()
            (3): Dropout2d(p=0.08, inplace=False)
            (4): Conv1d(20, 20, kernel_size=(11,), stride=(1,), padding=(40,), dilation=(4,))
            (5): Chomp1d()
            (6): ReLU()
            (7): Dropout2d(p=0.08, inplace=False)
          )
          (relu): ReLU()
        )
        (3): TemporalBlock(
          (conv1): Conv1d(20, 20, kernel_size=(11,), stride=(1,), padding=(80,), dilation=(8,))
          (chomp1): Chomp1d()
          (relu1): ReLU()
          (dropout1): Dropout2d(p=0.08, inplace=False)
          (conv2): Conv1d(20, 20, kernel_size=(11,), stride=(1,), padding=(80,), dilation=(8,))
          (chomp2): Chomp1d()
          (relu2): ReLU()
          (dropout2): Dropout2d(p=0.08, inplace=False)
          (net): Sequential(
            (0): Conv1d(20, 20, kernel_size=(11,), stride=(1,), padding=(80,), dilation=(8,))
            (1): Chomp1d()
            (2): ReLU()
            (3): Dropout2d(p=0.08, inplace=False)
            (4): Conv1d(20, 20, kernel_size=(11,), stride=(1,), padding=(80,), dilation=(8,))
            (5): Chomp1d()
            (6): ReLU()
            (7): Dropout2d(p=0.08, inplace=False)
          )
          (relu): ReLU()
        )
        (4): TemporalBlock(
          (conv1): Conv1d(20, 20, kernel_size=(11,), stride=(1,), padding=(160,), dilation=(16,))
          (chomp1): Chomp1d()
          (relu1): ReLU()
          (dropout1): Dropout2d(p=0.08, inplace=False)
          (conv2): Conv1d(20, 20, kernel_size=(11,), stride=(1,), padding=(160,), dilation=(16,))
          (chomp2): Chomp1d()
          (relu2): ReLU()
          (dropout2): Dropout2d(p=0.08, inplace=False)
          (net): Sequential(
            (0): Conv1d(20, 20, kernel_size=(11,), stride=(1,), padding=(160,), dilation=(16,))
            (1): Chomp1d()
            (2): ReLU()
            (3): Dropout2d(p=0.08, inplace=False)
            (4): Conv1d(20, 20, kernel_size=(11,), stride=(1,), padding=(160,), dilation=(16,))
            (5): Chomp1d()
            (6): ReLU()
            (7): Dropout2d(p=0.08, inplace=False)
          )
          (relu): ReLU()
        )
      )
    )
    (linear): Linear(in_features=20, out_features=1, bias=True)
  )
  (model): Sequential(
    (0): TimeDistributed(
      (module): InputBlock(
        (layers): ModuleList(
          (0): Conv1d(2, 2, kernel_size=(3,), stride=(1,))
          (1): ReLU()
          (2): MaxPool1d(kernel_size=2, stride=2, padding=0, dilation=1, ceil_mode=False)
          (3): Dropout2d(p=0.08, inplace=False)
          (4): Conv1d(2, 1, kernel_size=(3,), stride=(1,))
          (5): ReLU()
          (6): MaxPool1d(kernel_size=2, stride=2, padding=0, dilation=1, ceil_mode=False)
          (7): Dropout2d(p=0.08, inplace=False)
        )
        (net): Sequential(
          (0): Conv1d(2, 2, kernel_size=(3,), stride=(1,))
          (1): ReLU()
          (2): MaxPool1d(kernel_size=2, stride=2, padding=0, dilation=1, ceil_mode=False)
          (3): Dropout2d(p=0.08, inplace=False)
          (4): Conv1d(2, 1, kernel_size=(3,), stride=(1,))
          (5): ReLU()
          (6): MaxPool1d(kernel_size=2, stride=2, padding=0, dilation=1, ceil_mode=False)
          (7): Dropout2d(p=0.08, inplace=False)
        )
        (linear_layers): ModuleList(
          (0): Linear(in_features=14, out_features=160, bias=True)
          (1): ReLU()
        )
        (linear_net): Sequential(
          (0): Linear(in_features=14, out_features=160, bias=True)
          (1): ReLU()
        )
      )
    )
    (1): TCN(
      (tcn): TemporalConvNet(
        (layers): ModuleList(
          (0): TemporalBlock(
            (conv1): Conv1d(174, 20, kernel_size=(11,), stride=(1,), padding=(10,))
            (chomp1): Chomp1d()
            (relu1): ReLU()
            (dropout1): Dropout2d(p=0.08, inplace=False)
            (conv2): Conv1d(20, 20, kernel_size=(11,), stride=(1,), padding=(10,))
            (chomp2): Chomp1d()
            (relu2): ReLU()
            (dropout2): Dropout2d(p=0.08, inplace=False)
            (net): Sequential(
              (0): Conv1d(174, 20, kernel_size=(11,), stride=(1,), padding=(10,))
              (1): Chomp1d()
              (2): ReLU()
              (3): Dropout2d(p=0.08, inplace=False)
              (4): Conv1d(20, 20, kernel_size=(11,), stride=(1,), padding=(10,))
              (5): Chomp1d()
              (6): ReLU()
              (7): Dropout2d(p=0.08, inplace=False)
            )
            (downsample): Conv1d(174, 20, kernel_size=(1,), stride=(1,))
            (relu): ReLU()
          )
          (1): TemporalBlock(
            (conv1): Conv1d(20, 20, kernel_size=(11,), stride=(1,), padding=(20,), dilation=(2,))
            (chomp1): Chomp1d()
            (relu1): ReLU()
            (dropout1): Dropout2d(p=0.08, inplace=False)
            (conv2): Conv1d(20, 20, kernel_size=(11,), stride=(1,), padding=(20,), dilation=(2,))
            (chomp2): Chomp1d()
            (relu2): ReLU()
            (dropout2): Dropout2d(p=0.08, inplace=False)
            (net): Sequential(
              (0): Conv1d(20, 20, kernel_size=(11,), stride=(1,), padding=(20,), dilation=(2,))
              (1): Chomp1d()
              (2): ReLU()
              (3): Dropout2d(p=0.08, inplace=False)
              (4): Conv1d(20, 20, kernel_size=(11,), stride=(1,), padding=(20,), dilation=(2,))
              (5): Chomp1d()
              (6): ReLU()
              (7): Dropout2d(p=0.08, inplace=False)
            )
            (relu): ReLU()
          )
          (2): TemporalBlock(
            (conv1): Conv1d(20, 20, kernel_size=(11,), stride=(1,), padding=(40,), dilation=(4,))
            (chomp1): Chomp1d()
            (relu1): ReLU()
            (dropout1): Dropout2d(p=0.08, inplace=False)
            (conv2): Conv1d(20, 20, kernel_size=(11,), stride=(1,), padding=(40,), dilation=(4,))
            (chomp2): Chomp1d()
            (relu2): ReLU()
            (dropout2): Dropout2d(p=0.08, inplace=False)
            (net): Sequential(
              (0): Conv1d(20, 20, kernel_size=(11,), stride=(1,), padding=(40,), dilation=(4,))
              (1): Chomp1d()
              (2): ReLU()
              (3): Dropout2d(p=0.08, inplace=False)
              (4): Conv1d(20, 20, kernel_size=(11,), stride=(1,), padding=(40,), dilation=(4,))
              (5): Chomp1d()
              (6): ReLU()
              (7): Dropout2d(p=0.08, inplace=False)
            )
            (relu): ReLU()
          )
          (3): TemporalBlock(
            (conv1): Conv1d(20, 20, kernel_size=(11,), stride=(1,), padding=(80,), dilation=(8,))
            (chomp1): Chomp1d()
            (relu1): ReLU()
            (dropout1): Dropout2d(p=0.08, inplace=False)
            (conv2): Conv1d(20, 20, kernel_size=(11,), stride=(1,), padding=(80,), dilation=(8,))
            (chomp2): Chomp1d()
            (relu2): ReLU()
            (dropout2): Dropout2d(p=0.08, inplace=False)
            (net): Sequential(
              (0): Conv1d(20, 20, kernel_size=(11,), stride=(1,), padding=(80,), dilation=(8,))
              (1): Chomp1d()
              (2): ReLU()
              (3): Dropout2d(p=0.08, inplace=False)
              (4): Conv1d(20, 20, kernel_size=(11,), stride=(1,), padding=(80,), dilation=(8,))
              (5): Chomp1d()
              (6): ReLU()
              (7): Dropout2d(p=0.08, inplace=False)
            )
            (relu): ReLU()
          )
          (4): TemporalBlock(
            (conv1): Conv1d(20, 20, kernel_size=(11,), stride=(1,), padding=(160,), dilation=(16,))
            (chomp1): Chomp1d()
            (relu1): ReLU()
            (dropout1): Dropout2d(p=0.08, inplace=False)
            (conv2): Conv1d(20, 20, kernel_size=(11,), stride=(1,), padding=(160,), dilation=(16,))
            (chomp2): Chomp1d()
            (relu2): ReLU()
            (dropout2): Dropout2d(p=0.08, inplace=False)
            (net): Sequential(
              (0): Conv1d(20, 20, kernel_size=(11,), stride=(1,), padding=(160,), dilation=(16,))
              (1): Chomp1d()
              (2): ReLU()
              (3): Dropout2d(p=0.08, inplace=False)
              (4): Conv1d(20, 20, kernel_size=(11,), stride=(1,), padding=(160,), dilation=(16,))
              (5): Chomp1d()
              (6): ReLU()
              (7): Dropout2d(p=0.08, inplace=False)
            )
            (relu): ReLU()
          )
        )
        (network): Sequential(
          (0): TemporalBlock(
            (conv1): Conv1d(174, 20, kernel_size=(11,), stride=(1,), padding=(10,))
            (chomp1): Chomp1d()
            (relu1): ReLU()
            (dropout1): Dropout2d(p=0.08, inplace=False)
            (conv2): Conv1d(20, 20, kernel_size=(11,), stride=(1,), padding=(10,))
            (chomp2): Chomp1d()
            (relu2): ReLU()
            (dropout2): Dropout2d(p=0.08, inplace=False)
            (net): Sequential(
              (0): Conv1d(174, 20, kernel_size=(11,), stride=(1,), padding=(10,))
              (1): Chomp1d()
              (2): ReLU()
              (3): Dropout2d(p=0.08, inplace=False)
              (4): Conv1d(20, 20, kernel_size=(11,), stride=(1,), padding=(10,))
              (5): Chomp1d()
              (6): ReLU()
              (7): Dropout2d(p=0.08, inplace=False)
            )
            (downsample): Conv1d(174, 20, kernel_size=(1,), stride=(1,))
            (relu): ReLU()
          )
          (1): TemporalBlock(
            (conv1): Conv1d(20, 20, kernel_size=(11,), stride=(1,), padding=(20,), dilation=(2,))
            (chomp1): Chomp1d()
            (relu1): ReLU()
            (dropout1): Dropout2d(p=0.08, inplace=False)
            (conv2): Conv1d(20, 20, kernel_size=(11,), stride=(1,), padding=(20,), dilation=(2,))
            (chomp2): Chomp1d()
            (relu2): ReLU()
            (dropout2): Dropout2d(p=0.08, inplace=False)
            (net): Sequential(
              (0): Conv1d(20, 20, kernel_size=(11,), stride=(1,), padding=(20,), dilation=(2,))
              (1): Chomp1d()
              (2): ReLU()
              (3): Dropout2d(p=0.08, inplace=False)
              (4): Conv1d(20, 20, kernel_size=(11,), stride=(1,), padding=(20,), dilation=(2,))
              (5): Chomp1d()
              (6): ReLU()
              (7): Dropout2d(p=0.08, inplace=False)
            )
            (relu): ReLU()
          )
          (2): TemporalBlock(
            (conv1): Conv1d(20, 20, kernel_size=(11,), stride=(1,), padding=(40,), dilation=(4,))
            (chomp1): Chomp1d()
            (relu1): ReLU()
            (dropout1): Dropout2d(p=0.08, inplace=False)
            (conv2): Conv1d(20, 20, kernel_size=(11,), stride=(1,), padding=(40,), dilation=(4,))
            (chomp2): Chomp1d()
            (relu2): ReLU()
            (dropout2): Dropout2d(p=0.08, inplace=False)
            (net): Sequential(
              (0): Conv1d(20, 20, kernel_size=(11,), stride=(1,), padding=(40,), dilation=(4,))
              (1): Chomp1d()
              (2): ReLU()
              (3): Dropout2d(p=0.08, inplace=False)
              (4): Conv1d(20, 20, kernel_size=(11,), stride=(1,), padding=(40,), dilation=(4,))
              (5): Chomp1d()
              (6): ReLU()
              (7): Dropout2d(p=0.08, inplace=False)
            )
            (relu): ReLU()
          )
          (3): TemporalBlock(
            (conv1): Conv1d(20, 20, kernel_size=(11,), stride=(1,), padding=(80,), dilation=(8,))
            (chomp1): Chomp1d()
            (relu1): ReLU()
            (dropout1): Dropout2d(p=0.08, inplace=False)
            (conv2): Conv1d(20, 20, kernel_size=(11,), stride=(1,), padding=(80,), dilation=(8,))
            (chomp2): Chomp1d()
            (relu2): ReLU()
            (dropout2): Dropout2d(p=0.08, inplace=False)
            (net): Sequential(
              (0): Conv1d(20, 20, kernel_size=(11,), stride=(1,), padding=(80,), dilation=(8,))
              (1): Chomp1d()
              (2): ReLU()
              (3): Dropout2d(p=0.08, inplace=False)
              (4): Conv1d(20, 20, kernel_size=(11,), stride=(1,), padding=(80,), dilation=(8,))
              (5): Chomp1d()
              (6): ReLU()
              (7): Dropout2d(p=0.08, inplace=False)
            )
            (relu): ReLU()
          )
          (4): TemporalBlock(
            (conv1): Conv1d(20, 20, kernel_size=(11,), stride=(1,), padding=(160,), dilation=(16,))
            (chomp1): Chomp1d()
            (relu1): ReLU()
            (dropout1): Dropout2d(p=0.08, inplace=False)
            (conv2): Conv1d(20, 20, kernel_size=(11,), stride=(1,), padding=(160,), dilation=(16,))
            (chomp2): Chomp1d()
            (relu2): ReLU()
            (dropout2): Dropout2d(p=0.08, inplace=False)
            (net): Sequential(
              (0): Conv1d(20, 20, kernel_size=(11,), stride=(1,), padding=(160,), dilation=(16,))
              (1): Chomp1d()
              (2): ReLU()
              (3): Dropout2d(p=0.08, inplace=False)
              (4): Conv1d(20, 20, kernel_size=(11,), stride=(1,), padding=(160,), dilation=(16,))
              (5): Chomp1d()
              (6): ReLU()
              (7): Dropout2d(p=0.08, inplace=False)
            )
            (relu): ReLU()
          )
        )
      )
      (linear): Linear(in_features=20, out_features=1, bias=True)
    )
  )
)
Using single GPU..........................................
FTCN to device
TimeDistributed to device
Inputblock to device
99 epochs left to go

Training Epoch 0/100 starting at 2021-08-20 16:59:53.480640
[1]  [0/1724] loss: 1.854, ave_loss: 1.854
[2]  [20/1724] loss: 2.543, ave_loss: 2.198
[3]  [40/1724] loss: 2.318, ave_loss: 2.238
[4]  [60/1724] loss: 2.083, ave_loss: 2.199
…
